…
   1.05507209e-01  2.28482059e-04]
 [ 8.49530895e-02 -6.86756598e-01  8.00736351e-02 ... -1.23079194e-01
   1.05507209e-01  6.18672552e-02]
 [ 7.95984336e-02 -2.39648260e-01  8.00736351e-02 ... -1.23079194e-01
   9.88874472e-02 -6.14102911e-02]]
[0. 1. 0.]
Model: "model"
__________________________________________________________________________________________________
 Layer (type)                   Output Shape         Param #     Connected to                     
==================================================================================================
 input_1 (InputLayer)           [(None, 100, 40, 1)  0           []                               
                                ]                                                                 
                                                                                                  
 conv2d (Conv2D)                (None, 100, 20, 32)  96          ['input_1[0][0]']                
                                                                                                  
 leaky_re_lu (LeakyReLU)        (None, 100, 20, 32)  0           ['conv2d[0][0]']                 
                                                                                                  
 conv2d_1 (Conv2D)              (None, 100, 20, 32)  4128        ['leaky_re_lu[0][0]']            
                                                                                                  
 leaky_re_lu_1 (LeakyReLU)      (None, 100, 20, 32)  0           ['conv2d_1[0][0]']               
                                                                                                  
 conv2d_2 (Conv2D)              (None, 100, 20, 32)  4128        ['leaky_re_lu_1[0][0]']          
                                                                                                  
 leaky_re_lu_2 (LeakyReLU)      (None, 100, 20, 32)  0           ['conv2d_2[0][0]']               
                                                                                                  
 conv2d_3 (Conv2D)              (None, 100, 10, 32)  2080        ['leaky_re_lu_2[0][0]']          
                                                                                                  
 leaky_re_lu_3 (LeakyReLU)      (None, 100, 10, 32)  0           ['conv2d_3[0][0]']               
                                                                                                  
 conv2d_4 (Conv2D)              (None, 100, 10, 32)  4128        ['leaky_re_lu_3[0][0]']          
                                                                                                  
 leaky_re_lu_4 (LeakyReLU)      (None, 100, 10, 32)  0           ['conv2d_4[0][0]']               
                                                                                                  
 conv2d_5 (Conv2D)              (None, 100, 10, 32)  4128        ['leaky_re_lu_4[0][0]']          
                                                                                                  
 leaky_re_lu_5 (LeakyReLU)      (None, 100, 10, 32)  0           ['conv2d_5[0][0]']               
                                                                                                  
 conv2d_6 (Conv2D)              (None, 100, 1, 32)   10272       ['leaky_re_lu_5[0][0]']          
                                                                                                  
 leaky_re_lu_6 (LeakyReLU)      (None, 100, 1, 32)   0           ['conv2d_6[0][0]']               
                                                                                                  
 conv2d_7 (Conv2D)              (None, 100, 1, 32)   4128        ['leaky_re_lu_6[0][0]']          
                                                                                                  
 leaky_re_lu_7 (LeakyReLU)      (None, 100, 1, 32)   0           ['conv2d_7[0][0]']               
                                                                                                  
 conv2d_8 (Conv2D)              (None, 100, 1, 32)   4128        ['leaky_re_lu_7[0][0]']          
                                                                                                  
 leaky_re_lu_8 (LeakyReLU)      (None, 100, 1, 32)   0           ['conv2d_8[0][0]']               
                                                                                                  
 conv2d_9 (Conv2D)              (None, 100, 1, 64)   2112        ['leaky_re_lu_8[0][0]']          
                                                                                                  
 conv2d_11 (Conv2D)             (None, 100, 1, 64)   2112        ['leaky_re_lu_8[0][0]']          
                                                                                                  
 leaky_re_lu_9 (LeakyReLU)      (None, 100, 1, 64)   0           ['conv2d_9[0][0]']               
                                                                                                  
 leaky_re_lu_11 (LeakyReLU)     (None, 100, 1, 64)   0           ['conv2d_11[0][0]']              
                                                                                                  
 max_pooling2d (MaxPooling2D)   (None, 100, 1, 32)   0           ['leaky_re_lu_8[0][0]']          
                                                                                                  
 conv2d_10 (Conv2D)             (None, 100, 1, 64)   12352       ['leaky_re_lu_9[0][0]']          
                                                                                                  
 conv2d_12 (Conv2D)             (None, 100, 1, 64)   20544       ['leaky_re_lu_11[0][0]']         
                                                                                                  
 conv2d_13 (Conv2D)             (None, 100, 1, 64)   2112        ['max_pooling2d[0][0]']          
                                                                                                  
 leaky_re_lu_10 (LeakyReLU)     (None, 100, 1, 64)   0           ['conv2d_10[0][0]']              
                                                                                                  
 leaky_re_lu_12 (LeakyReLU)     (None, 100, 1, 64)   0           ['conv2d_12[0][0]']              
                                                                                                  
 leaky_re_lu_13 (LeakyReLU)     (None, 100, 1, 64)   0           ['conv2d_13[0][0]']              
                                                                                                  
 concatenate (Concatenate)      (None, 100, 1, 192)  0           ['leaky_re_lu_10[0][0]',         
                                                                  'leaky_re_lu_12[0][0]',         
                                                                  'leaky_re_lu_13[0][0]']         
                                                                                                  
 reshape (Reshape)              (None, 100, 192)     0           ['concatenate[0][0]']            
                                                                                                  
 dropout (Dropout)              (None, 100, 192)     0           ['reshape[0][0]']                
                                                                                                  
 lstm (LSTM)                    (None, 64)           65792       ['dropout[0][0]']                
                                                                                                  
 dense (Dense)                  (None, 3)            195         ['lstm[0][0]']                   
                                                                                                  
==================================================================================================
Total params: 142,435
Trainable params: 142,435
Non-trainable params: 0
__________________________________________________________________________________________________
…
   1.05507209e-01  2.28482059e-04]
 [ 8.49530895e-02 -6.86756598e-01  8.00736351e-02 ... -1.23079194e-01
   1.05507209e-01  6.18672552e-02]
 [ 7.95984336e-02 -2.39648260e-01  8.00736351e-02 ... -1.23079194e-01
   9.88874472e-02 -6.14102911e-02]]
[1. 0. 0.]
Model: "model_1"
__________________________________________________________________________________________________
 Layer (type)                   Output Shape         Param #     Connected to                     
==================================================================================================
 input_2 (InputLayer)           [(None, 100, 40, 1)  0           []                               
                                ]                                                                 
                                                                                                  
 conv2d_14 (Conv2D)             (None, 100, 20, 32)  96          ['input_2[0][0]']                
                                                                                                  
 leaky_re_lu_14 (LeakyReLU)     (None, 100, 20, 32)  0           ['conv2d_14[0][0]']              
                                                                                                  
 conv2d_15 (Conv2D)             (None, 100, 20, 32)  4128        ['leaky_re_lu_14[0][0]']         
                                                                                                  
 leaky_re_lu_15 (LeakyReLU)     (None, 100, 20, 32)  0           ['conv2d_15[0][0]']              
                                                                                                  
 conv2d_16 (Conv2D)             (None, 100, 20, 32)  4128        ['leaky_re_lu_15[0][0]']         
                                                                                                  
 leaky_re_lu_16 (LeakyReLU)     (None, 100, 20, 32)  0           ['conv2d_16[0][0]']              
                                                                                                  
 conv2d_17 (Conv2D)             (None, 100, 10, 32)  2080        ['leaky_re_lu_16[0][0]']         
                                                                                                  
 leaky_re_lu_17 (LeakyReLU)     (None, 100, 10, 32)  0           ['conv2d_17[0][0]']              
                                                                                                  
 conv2d_18 (Conv2D)             (None, 100, 10, 32)  4128        ['leaky_re_lu_17[0][0]']         
                                                                                                  
 leaky_re_lu_18 (LeakyReLU)     (None, 100, 10, 32)  0           ['conv2d_18[0][0]']              
                                                                                                  
 conv2d_19 (Conv2D)             (None, 100, 10, 32)  4128        ['leaky_re_lu_18[0][0]']         
                                                                                                  
 leaky_re_lu_19 (LeakyReLU)     (None, 100, 10, 32)  0           ['conv2d_19[0][0]']              
                                                                                                  
 conv2d_20 (Conv2D)             (None, 100, 1, 32)   10272       ['leaky_re_lu_19[0][0]']         
                                                                                                  
 leaky_re_lu_20 (LeakyReLU)     (None, 100, 1, 32)   0           ['conv2d_20[0][0]']              
                                                                                                  
 conv2d_21 (Conv2D)             (None, 100, 1, 32)   4128        ['leaky_re_lu_20[0][0]']         
                                                                                                  
 leaky_re_lu_21 (LeakyReLU)     (None, 100, 1, 32)   0           ['conv2d_21[0][0]']              
                                                                                                  
 conv2d_22 (Conv2D)             (None, 100, 1, 32)   4128        ['leaky_re_lu_21[0][0]']         
                                                                                                  
 leaky_re_lu_22 (LeakyReLU)     (None, 100, 1, 32)   0           ['conv2d_22[0][0]']              
                                                                                                  
 conv2d_23 (Conv2D)             (None, 100, 1, 64)   2112        ['leaky_re_lu_22[0][0]']         
                                                                                                  
 conv2d_25 (Conv2D)             (None, 100, 1, 64)   2112        ['leaky_re_lu_22[0][0]']         
                                                                                                  
 leaky_re_lu_23 (LeakyReLU)     (None, 100, 1, 64)   0           ['conv2d_23[0][0]']              
                                                                                                  
 leaky_re_lu_25 (LeakyReLU)     (None, 100, 1, 64)   0           ['conv2d_25[0][0]']              
                                                                                                  
 max_pooling2d_1 (MaxPooling2D)  (None, 100, 1, 32)  0           ['leaky_re_lu_22[0][0]']         
                                                                                                  
 conv2d_24 (Conv2D)             (None, 100, 1, 64)   12352       ['leaky_re_lu_23[0][0]']         
                                                                                                  
 conv2d_26 (Conv2D)             (None, 100, 1, 64)   20544       ['leaky_re_lu_25[0][0]']         
                                                                                                  
 conv2d_27 (Conv2D)             (None, 100, 1, 64)   2112        ['max_pooling2d_1[0][0]']        
                                                                                                  
 leaky_re_lu_24 (LeakyReLU)     (None, 100, 1, 64)   0           ['conv2d_24[0][0]']              
                                                                                                  
 leaky_re_lu_26 (LeakyReLU)     (None, 100, 1, 64)   0           ['conv2d_26[0][0]']              
                                                                                                  
 leaky_re_lu_27 (LeakyReLU)     (None, 100, 1, 64)   0           ['conv2d_27[0][0]']              
                                                                                                  
 concatenate_1 (Concatenate)    (None, 100, 1, 192)  0           ['leaky_re_lu_24[0][0]',         
                                                                  'leaky_re_lu_26[0][0]',         
                                                                  'leaky_re_lu_27[0][0]']         
                                                                                                  
 reshape_1 (Reshape)            (None, 100, 192)     0           ['concatenate_1[0][0]']          
                                                                                                  
 dropout_1 (Dropout)            (None, 100, 192)     0           ['reshape_1[0][0]']              
                                                                                                  
 lstm_1 (LSTM)                  (None, 64)           65792       ['dropout_1[0][0]']              
                                                                                                  
 dense_1 (Dense)                (None, 3)            195         ['lstm_1[0][0]']                 
                                                                                                  
==================================================================================================
Total params: 142,435
Trainable params: 142,435
Non-trainable params: 0
__________________________________________________________________________________________________
…
